…
['/data1/zyl/test/SelfHDR-master/traindata/Training/005/exposure.txt', ['/data1/zyl/test/SelfHDR-master/traindata/Training/005/262A1066.tif', '/data1/zyl/test/SelfHDR-master/traindata/Training/005/262A1067.tif', '/data1/zyl/test/SelfHDR-master/traindata/Training/005/262A1068.tif'], '/data1/zyl/test/SelfHDR-master/traindata/Training_align/005/HDRImg.hdr', '005', './ckpt/ahdrnet_stage1/output_150/005.hdr'] fails!
dataset [sig17align(train)] created
The number of training images = 19200
Starting to load images via multiple imreaders
dataset [sig17align(val)] created
The number of val images = 15
Noise Style: gauss_fix, Noise Params: [0.00196078431372549]
model [SelfHDR2Model] was created
---------- Networks initialized -------------
DataParallel(
  (module): AHDR(
    (conv1): Conv2d(6, 64, kernel_size=(3, 3), stride=(1, 1), padding=(1, 1))
    (conv2): Conv2d(192, 64, kernel_size=(3, 3), stride=(1, 1), padding=(1, 1))
    (att11): Conv2d(128, 128, kernel_size=(3, 3), stride=(1, 1), padding=(1, 1))
    (att12): Conv2d(128, 64, kernel_size=(3, 3), stride=(1, 1), padding=(1, 1))
    (att31): Conv2d(128, 128, kernel_size=(3, 3), stride=(1, 1), padding=(1, 1))
    (att32): Conv2d(128, 64, kernel_size=(3, 3), stride=(1, 1), padding=(1, 1))
    (RDB1): DRDB(
      (dense_layers): Sequential(
        (0): make_dilation_dense(
          (conv): Conv2d(64, 32, kernel_size=(3, 3), stride=(1, 1), padding=(2, 2), dilation=(2, 2))
        )
        (1): make_dilation_dense(
          (conv): Conv2d(96, 32, kernel_size=(3, 3), stride=(1, 1), padding=(2, 2), dilation=(2, 2))
        )
        (2): make_dilation_dense(
          (conv): Conv2d(128, 32, kernel_size=(3, 3), stride=(1, 1), padding=(2, 2), dilation=(2, 2))
        )
        (3): make_dilation_dense(
          (conv): Conv2d(160, 32, kernel_size=(3, 3), stride=(1, 1), padding=(2, 2), dilation=(2, 2))
        )
        (4): make_dilation_dense(
          (conv): Conv2d(192, 32, kernel_size=(3, 3), stride=(1, 1), padding=(2, 2), dilation=(2, 2))
        )
      )
      (conv_1x1): Conv2d(224, 64, kernel_size=(1, 1), stride=(1, 1))
    )
    (RDB2): DRDB(
      (dense_layers): Sequential(
        (0): make_dilation_dense(
          (conv): Conv2d(64, 32, kernel_size=(3, 3), stride=(1, 1), padding=(2, 2), dilation=(2, 2))
        )
        (1): make_dilation_dense(
          (conv): Conv2d(96, 32, kernel_size=(3, 3), stride=(1, 1), padding=(2, 2), dilation=(2, 2))
        )
        (2): make_dilation_dense(
          (conv): Conv2d(128, 32, kernel_size=(3, 3), stride=(1, 1), padding=(2, 2), dilation=(2, 2))
        )
        (3): make_dilation_dense(
          (conv): Conv2d(160, 32, kernel_size=(3, 3), stride=(1, 1), padding=(2, 2), dilation=(2, 2))
        )
        (4): make_dilation_dense(
          (conv): Conv2d(192, 32, kernel_size=(3, 3), stride=(1, 1), padding=(2, 2), dilation=(2, 2))
        )
      )
      (conv_1x1): Conv2d(224, 64, kernel_size=(1, 1), stride=(1, 1))
    )
    (RDB3): DRDB(
      (dense_layers): Sequential(
        (0): make_dilation_dense(
          (conv): Conv2d(64, 32, kernel_size=(3, 3), stride=(1, 1), padding=(2, 2), dilation=(2, 2))
        )
        (1): make_dilation_dense(
          (conv): Conv2d(96, 32, kernel_size=(3, 3), stride=(1, 1), padding=(2, 2), dilation=(2, 2))
        )
        (2): make_dilation_dense(
          (conv): Conv2d(128, 32, kernel_size=(3, 3), stride=(1, 1), padding=(2, 2), dilation=(2, 2))
        )
        (3): make_dilation_dense(
          (conv): Conv2d(160, 32, kernel_size=(3, 3), stride=(1, 1), padding=(2, 2), dilation=(2, 2))
        )
        (4): make_dilation_dense(
          (conv): Conv2d(192, 32, kernel_size=(3, 3), stride=(1, 1), padding=(2, 2), dilation=(2, 2))
        )
      )
      (conv_1x1): Conv2d(224, 64, kernel_size=(1, 1), stride=(1, 1))
    )
    (GFF_1x1): Conv2d(192, 64, kernel_size=(1, 1), stride=(1, 1))
    (GFF_3x3): Conv2d(64, 64, kernel_size=(3, 3), stride=(1, 1), padding=(1, 1))
    (conv_up): Conv2d(64, 64, kernel_size=(3, 3), stride=(1, 1), padding=(1, 1))
    (conv3): Conv2d(64, 3, kernel_size=(3, 3), stride=(1, 1), padding=(1, 1))
    (relu): LeakyReLU(negative_slope=0.01)
  )
)
[Network SelfHDR] Total number of parameters : 1.242 M
-----------------------------------------------
